Number of GPU used : 2 

Includes 6000 train samples, 2000 val samples, 2000 test samples 
Batch size 50 

Comment on the model : Neumann 2 

Model configuration : 
{
'latent_dim':'10'
'hidden_dim':'10'
'n_layers':'1'
'fw_tol':'1e-05'
'fw_thres':'500'
'bw_tol':'1e-08'
'bw_thres':'500'
'solver':'<function broyden at 0x7fd64dd1f820>'
'path_logs':'results/08_06_2023_18:02:27/logs'
}

Training configuration : 
{
'model':'DataParallel(
  (module): ModelDEQDSS(
    (autoencoder): Autoencoder(
      (encoder): Encoder(
        (mlp): MLP(
          (mlp): Sequential(
            (0): Linear(in_features=1, out_features=10, bias=True)
            (1): ReLU()
            (2): Linear(in_features=10, out_features=10, bias=True)
          )
        )
      )
      (decoder): Decoder(
        (mlp): MLP(
          (mlp): Sequential(
            (0): Linear(in_features=10, out_features=10, bias=True)
            (1): ReLU()
            (2): Linear(in_features=10, out_features=1, bias=True)
          )
        )
      )
    )
    (deqdss): DeepEquilibrium(
      (f): Function(
        (laynorm): LayerNorm((10,), eps=1e-05, elementwise_affine=True)
        (phi_to_list): ModuleList(
          (0): Phi_to()
        )
        (phi_from_list): ModuleList(
          (0): Phi_from()
        )
        (alpha): Sequential(
          (0): Linear(in_features=33, out_features=1, bias=True)
          (1): Sigmoid()
        )
        (update_list): ModuleList(
          (0): MLP(
            (mlp): Sequential(
              (0): Linear(in_features=33, out_features=10, bias=True)
              (1): ReLU()
              (2): Linear(in_features=10, out_features=10, bias=True)
            )
          )
        )
        (phi_neumann): Phi_from()
        (update_neumann): MLP(
          (mlp): Sequential(
            (0): Linear(in_features=25, out_features=10, bias=True)
            (1): ReLU()
            (2): Linear(in_features=10, out_features=10, bias=True)
          )
        )
      )
    )
    (mse_loss): MSELoss()
  )
)'
'config_model':'{'latent_dim': 10, 'hidden_dim': 10, 'n_layers': 1, 'fw_tol': 1e-05, 'fw_thres': 500, 'bw_tol': 1e-08, 'bw_thres': 500, 'solver': <function broyden at 0x7fd64dd1f820>, 'path_logs': 'results/08_06_2023_18:02:27/logs'}'
'loader_train':'<torch_geometric.loader.data_list_loader.DataListLoader object at 0x7fd64d4204f0>'
…
